data.pth (torch, 7807 bytes, 6 tensors)

l1.weight f4 [8, 92]
0.5046722 0.026354313 0.01579243 0.46307534 0.872211 0.6838004 -0.84371895 0.5409403
-0.5668246 -0.24022356 1.0258999 -0.71364635 0.24314488 0.66248304 0.122989856 0.36146516
0.3917883 -0.22780454 1.2939332 0.33732796 0.63956696 0.7830774 0.39849082 1.2859446
1.1892953 0.22895838 0.36250165 0.67037475 -0.12728426 -0.0052415635 -0.48794958 -0.46811777
0.446748 -0.51480496 -0.5208838 -0.5953656 0.38778037 0.24025497 0.18510695 0.0062822327
0.27534294 0.756244 -0.17214464 -0.74449974 0.48181012 -0.14441827 -0.57087237 0.7549501
0.30560127 0.16117975 0.8891711 0.49121204 0.020745737 -0.06578613 -0.8062704 -0.42046097
-0.2542568 -0.59476 0.44151935 0.4174639 0.835433 0.7125227 0.5976615 0.7457114
-0.6687388 0.55486524 0.4177966 1.1959226 -0.6270077 -0.68576735 -0.031776227 -0.6364613
-0.13538532 0.032242626 -0.6829724 1.0824634 0.5240881 -0.7073205 0.28642148 -0.54168296
1.0337032 0.30235353 0.37346768 0.59272295 0.353247 0.57409203 0.3555174 -0.02255488
0.400271 0.5119752 0.36832577 0.7571488 0.52849704 0.18368655 0.15098034 -0.35359874
0.7374126 0.14562066 0.6878098 0.28667194 -0.4734127 0.035266712 0.15088637 -0.6803055
0.07363086 0.7494464 0.14790641 0.2078104 0.25715318 0.08753026 0.038567983 0.039324854
0.99090785 -0.26323473 0.21736377 -1.1163691 0.6188942 0.20180888 0.21934819 0.8346923
-0.14397953 -0.6011001 0.7308468 0.6765525 0.5922629 0.58552015 0.66465086 0.5354653
0.29985395 0.081051335 -0.16992183 -0.09078296 -0.41381416 -0.075612314 -0.84225297 -0.6779094
0.062369976 0.28349844 -0.6568822 -1.0863781 0.29047373 -0.4886281 0.37057802 0.2506915
-0.41980413 -0.12358138 0.5795155 0.42338946 -0.402398 -0.4447989 0.30653664 -0.54387826
0.8417681 0.07229863 0.41988117 0.50951546 -0.14407799 0.3428737 0.41863674 0.029971197
-0.74307436 0.6093767 -0.2608899 -0.8346271 1.0377998 -0.09909276 -0.6422083 0.14551121
0.47363013 -0.5673973 0.2878942 0.63144046 0.46467927 0.10771228 0.2281727 1.0513791
0.46630204 0.27792627 0.23104213 0.29581082 -0.5536453 0.25301665 -0.04492423 0.6887064
0.64717513 0.37566155 0.1217289 0.025907533 0.3269601 -0.025450084 0.33956954 0.5405689
-0.48214743 1.0365571 0.4751206 0.9211436 0.0058348286 0.48831978 -0.03381863 -0.06797101
0.2356651 1.0002301 -0.9382382 0.41647196 0.81908876 0.76117617 0.36858872 -1.0247111
1.709348 0.25242612 -0.12707287 0.63548994 0.5202821 -0.0268878 0.5400925 0.52759755
0.47890216 0.45684212 0.47820118 0.3788998 0.15170433 0.083942 0.08519713 0.7585748
-0.399104 0.13801518 0.13922304 0.8652673 0.53091395 0.3336879 -0.6716717 -0.15717688
0.37485465 -0.4989967 -0.62840647 0.35396743 -0.003879915 0.5582289 0.2729614 -0.032853942
-0.60341054 -0.37884954 0.3802907 0.98214835 0.64489913 -0.07960804 0.62664396 0.9694738
-0.4801089 0.529574 0.5507212 -0.8093612 -0.6645852 0.45801127 0.7505622 -0.43884277
00000000: 3332 013f 00e5 d73c 205f 813c 3618 ed3e
00000010: 3849 5f3f 8b0d 2f3f f7fd 57bf 107b 0a3f
00000020: 6b1b 11bf 2afd 75be b050 833f 87b1 36bf
00000030: f9fa 783e 7d98 293f 1be2 fb3d f611 b93e
00000040: 7a98 c83e 9845 69be 9a9f a53f 40b6 ac3e
00000050: a9ba 233f c377 483f fd06 cc3e d599 a43f
00000060: d43a 983f 1174 6a3e d199 b93e ae9d 2b3f
00000070: ce56 02be 6cc1 abbb 87d4 f9be 22ad efbe
00000080: 27bc e43e 42ca 03bf a458 05bf e169 18bf
00000090: 268b c63e 6605 763e ad8c 3d3e 30db cd3b
000000a0: c0f9 8c3e 3599 413f af46 30be 8997 3ebf
000000b0: d1af f63e 62e2 13be b124 12bf 6944 413f
000000c0: c577 9c3e 4e0c 253e b8a0 633f 2580 fb3e
000000d0: f7f2 a93c e1ba 86bd bd67 4ebf a946 d7be
000000e0: f32d 82be 3142 18bf d30e e23e d4bd d53e
000000f0: f0de 553f e367 363f 5800 193f f1e6 3e3f
00000100: 7732 2bbf a60b 0e3f 70e9 d53e fe13 993f
00000110: 9483 20bf 738e 2fbf ca27 02bd 21ef 22bf
00000120: 73a2 0abe d810 043d 47d7 2ebf 298e 8a3f
00000130: a32a 063f f512 35bf d6a5 923e bcab 0abf
00000140: 6350 843f 15ce 9a3e 2837 bf3e b1bc 173f
00000150: cadc b43e b2f7 123f 6006 b63e 03c5 b8bc
00000160: 52f0 cc3e cf10 033f 3295 bc3e 81d4 413f
00000170: 954b 073f 5418 3c3e 979a 1a3e e50a b5be
00000180: 12c7 3c3f 951d 153e 4e14 303f aac6 923e
00000190: 2663 f2be d473 103d f581 1a3e 8028 2ebf
000001a0: c7cb 963d b8db 3f3f c774 173e 40cc 543e
000001b0: 95a9 833e 1143 b33d 76f9 1d3d 1913 213d
000001c0: 23ac 7d3f b4c6 86be 9c94 5e3e 2fe5 8ebf
000001d0: da6f 1e3f fda6 4e3e d09c 603e 65ae 553f
000001e0: 5f6f 13be b2e1 19bf c718 3b3f 8b32 2d3f
000001f0: 8b9e 173f a6e4 153f 8f26 2a3f 4114 093f
00000200: 7586 993e 3efe a53d fdff 2dbe 6bec b9bd
00000210: 73df d3be a1da 9abd e49d 57bf 788b 2dbf
00000220: a977 7f3d b526 913e 6f29 28bf 700e 8bbf
00000230: f9b8 943e 762d fabe 67bc bd3e a35a 803e
00000240: 91f0 d6be 3c18 fdbd 215b 143f 81c6 d83e
00000250: 1c07 cebe aebc e3be 5ff2 9c3e 9b3b 0bbf
00000260: 1d7e 573f 4e11 943d aafa d63e 9b6f 023f
00000270: 2e89 13be 248d af3e 8e57 d63e 2886 f53c
00000280: 1f3a 3ebf 1d00 1c3f 5c93 85be 1faa 55bf
00000290: a0d6 843f 25f1 cabd c367 24bf e400 153e
000002a0: a67f f23e f340 11bf de66 933e 15a6 213f
000002b0: 71ea ed3e 4198 dc3d 1ba6 693e 9793 863f
000002c0: 24bf ee3e 5a4c 8e3e 4f96 6c3e 8474 973e
000002d0: b3bb 0dbf 668b 813e 7802 38bd 104f 303f
000002e0: 45ad 253f b656 c03e 004d f93d 093c d43c
000002f0: 5067 a73e b27c d0bc 0fdc ad3e b962 0a3f
00000300: 07dc f6be e7ad 843f 0243 f33e 11d0 6b3f
00000310: 1732 bf3b 0d05 fa3e 6785 0abd 6334 8bbd
00000320: 3152 713e 8a07 803f 6130 70bf d03b d53e
00000330: cdaf 513f 71dc 423f a9b7 bc3e bc29 83bf
00000340: eacb da3f ff3d 813e 641f 02be 78af 223f
00000350: 3531 053f ce43 dcbc 8143 0a3f a210 073f
00000360: aa32 f53e 36e7 e93e c9d6 f43e 28ff c13e
00000370: 6158 1b3e c9e9 ab3d d57b ae3d f531 423f
00000380: 5c57 ccbe da53 0d3e 7c90 0e3e 2882 5d3f
00000390: fae9 073f 24d9 aa3e adf2 2bbf faf2 20be
000003a0: f3ec bf3e 7f7c ffbe 3fdf 20bf 383b b53e
000003b0: 2c46 7ebb 17e8 0e3f 99c1 8b3e db91 06bd
000003c0: 1d79 1abf 91f8 c1be 76b5 c23e 136e 7b3f
000003d0: 1c18 253f 8a09 a3bd bd6b 203f 6f2f 783f
000003e0: d5d0 f5be 2992 073f 11fc 0c3f 4c32 4fbf
000003f0: 4122 2abf 7480 ea3e d824 403f 00b0 e0be

l1.bias f4 [8]
1.6499149 1.3010966 1.3018428 1.157401 0.80402803 0.83527315 0.66913354 0.9394088
00000000: 6930 d33f 558a a63f c9a2 a63f b725 943f
00000010: c8d4 4d3f 76d4 553f 564c 2b3f 187d 703f

l2.weight f4 [8, 8]
2.0087864 0.47425672 0.13958032 0.04290386 -1.6999044 -0.46808746 0.45100406 0.73262316
-0.47201726 -0.010466236 -0.503737 0.16854104 -0.3365476 -0.008514275 -0.28738078 -0.32839936
2.1651235 1.1032952 1.8328866 -1.5185454 0.779171 1.8277842 0.4048636 -0.12395365
0.53785115 1.7214166 0.19102708 1.6567309 -0.9506626 -0.98739135 -1.4222813 -0.012574923
0.6689483 2.6396515 2.0743532 0.081644714 2.0758958 -0.620139 -1.9393841 1.7334036
-0.009954214 -0.08616571 1.3735292 1.0134015 -1.2596182 2.0403204 0.23881039 -1.5165198
1.0008245 0.3757448 -0.75818634 1.0925658 -0.23749748 -0.07700428 0.3148736 -1.631717
0.4825057 -1.7257166 -0.18876006 2.6155338 0.56811994 0.6095565 2.0433118 1.7955581
00000000: f58f 0040 c7d1 f23e 25ee 0e3e f5bb 2f3d
00000010: 7896 d9bf 29a9 efbe 01ea e63e 318d 3b3f
00000020: 3fac f1be 937a 2bbc e8f4 00bf 0696 2c3e
00000030: f84f acbe 757f 0bbc 9323 93be f623 a8be
00000040: 6291 0a40 c738 8d3f 079c ea3f b25f c2bf
00000050: c077 473f d5f4 e93f 484a cf3e 69db fdbd
00000060: 9db0 093f 6157 dc3f 9a9c 433e c20f d43f
00000070: a05e 73bf aec5 7cbf 500d b6bf 0d07 4ebc
00000080: 3240 2b3f 0df0 2840 34c2 0440 5835 a73d
00000090: 7adb 0440 6ec1 1ebf bd3d f8bf 2be0 dd3f
000000a0: 0017 23bc a677 b0bd cecf af3f 24b7 813f
000000b0: 2b3b a1bf 9c94 0240 b68a 743e 521d c2bf
000000c0: 041b 803f 9f61 c03e 8018 42bf 32d9 8b3f
000000d0: 8a32 73be 6cb4 9dbd 1d37 a13e 1adc d0bf
000000e0: fd0a f73e 48e4 dcbf 514a 41be e864 2740
000000f0: 4f70 113f e50b 1c3f 9fc5 0240 d9d4 e53f

l2.bias f4 [8]
0.29359525 -0.4428818 0.71497375 0.7599894 0.5773201 0.45395178 0.91841495 0.526966
00000000: 1e52 963e 67c1 e2be 8508 373f aa8e 423f
00000010: 40cb 133f 5e6c e83e 3e1d 6b3f 3ee7 063f

l3.weight f4 [28, 8]
-1.7719244 -0.4297605 0.35748217 -2.1104167 -1.2805014 0.9589129 -1.0205837 -0.010710528
-2.2204506 -0.13348085 0.2974713 -1.718167 0.15919468 0.4816615 -0.3897107 -0.5872125
0.1280587 0.14426094 0.36923188 -2.4768324 -0.41076744 0.21888436 0.041451495 -0.6068286
0.09877437 -0.36940187 -0.39087436 -0.71771514 -0.20984437 -0.4546859 -0.11689031 0.20146021
-0.6852625 0.28484678 0.11678495 -2.5269606 0.6011985 -2.094522 -1.3830434 -0.06506169
0.62968135 -0.13902552 -0.728101 0.33951548 -1.491547 -0.69217587 0.3985359 0.11379192
0.2258241 0.18641733 -0.07216605 -2.3818536 -0.29889163 0.15275519 -1.8917327 0.121200025
0.81044704 -0.28282985 0.24562815 -1.2727625 -1.3335704 -2.1856158 0.4242782 0.23247316
-0.98801523 -0.250933 -1.0052676 -1.67271 0.21072362 -2.1940248 -1.2150724 0.68480986
-0.68919176 -0.22744794 -1.8466117 0.68607014 -1.6019084 0.22312361 0.6470417 0.1737008
-2.0151079 -0.059442025 -0.36439544 0.40636992 0.47318417 -2.5682335 1.0380951 -1.1111939
-2.8482683 0.13320176 0.20386945 -0.608045 0.5439632 -0.7709544 -1.4401987 -0.31232867
0.5336022 0.22680941 -1.5665845 -0.6821874 -0.7662527 -2.0463958 0.08912417 0.64787865
-1.5974199 -0.10111834 0.63199687 -1.6151831 -0.6804189 -1.2299231 -1.356308 0.4349961
-0.5817882 -0.39714584 -2.2602022 0.30222777 0.40196246 -2.1649582 -1.2665751 0.27288786
0.11093341 -0.050237976 -2.212372 0.5781482 -0.30906337 -0.6109572 0.339902 0.080205895
-0.87846273 0.07373045 -1.1163344 -1.9559208 -1.1429147 -0.16098106 -1.8668716 0.9186799
-0.27733508 0.17576636 0.4867992 -1.9903996 -0.17955813 0.98209935 -1.8519115 -1.8332914
-1.4748695 -0.22760232 -1.1002054 -2.503312 -1.7817298 0.89038545 0.5308288 0.3910934
-0.028298516 0.2043318 0.00052747974 0.038465682 -0.58667076 0.4444461 0.39488146 -0.91543746
-0.5138135 -0.23254678 0.8396907 -2.5035832 0.4906852 -0.877324 -1.2177533 -1.2463368
0.31202134 -0.30643296 0.47478878 -0.45238307 0.68388253 -2.6840732 -1.2936735 -2.4210632
-0.41938767 -0.11667068 -0.46603823 0.46057352 0.61123353 -2.4697678 -2.15714 -0.4868146
0.16601148 0.21346822 -0.2161249 -0.8169641 -1.6574571 0.7654348 0.32490653 -0.14069247
0.94787604 -0.08394132 -0.040133942 -0.17493846 0.052850716 -0.58990276 -1.8784113 -0.91844445
-0.6423312 -0.33793047 -1.2245444 0.70105964 0.07025325 0.10873635 0.5028709 -0.72863126
0.5495695 -0.32744384 -0.4778969 0.38660052 -0.23074812 -1.9426548 0.25559607 -0.39794287
0.24386357 -0.324338 0.24759576 -0.3074738 0.12338971 0.34923935 -0.7920972 -2.721791
00000000: 6bce e2bf 9109 dcbe e707 b73e 1111 07c0
00000010: 78e7 a3bf 517b 753f 7da2 82bf 367b 2fbc
00000020: dd1b 0ec0 34af 08be 294e 983e e5ec dbbf
00000030: ee03 233e 569c f63e 2988 c7be 8f53 16bf
00000040: d221 033e 24b9 133e f60b bd3e 6c84 1ec0
00000050: 1c50 d2be 3923 603e 0bc9 293d 1e59 1bbf
00000060: 384a ca3d 3e22 bdbe af20 c8be 2ebc 37bf
00000070: 71e1 56be 97cc e8be 3064 efbd 964b 4e3e
00000080: 5d6d 2fbf 70d7 913e f32c ef3d b9b9 21c0
00000090: 25e8 193f a60c 06c0 9107 b1bf 103f 85bd
000000a0: cc32 213f b55c 0ebe d464 3abf f9d4 ad3e
000000b0: 03eb bebf 7032 31bf e60c cc3e bd0b e93d
000000c0: 6f3e 673e 2fe4 3e3e cbcb 93bd 4a70 18c0
000000d0: 5308 99be db6b 1c3e 4c24 f2bf b837 f83d
000000e0: 7579 4f3f 13cf 90be f285 7b3e e2e9 a2bf
000000f0: 6fb2 aabf 21e1 0bc0 fe3a d93e 720d 6e3e
00000100: 91ee 7cbf 4a7a 80be 9cac 80bf 5c1b d6bf
00000110: efc7 573e e76a 0cc0 7e87 9bbf b34f 2f3f
00000120: df6e 30bf 1de8 68be c65d ecbf 4ba2 2f3f
00000130: 560b cdbf 847a 643e 86a4 253f 9fde 313e
00000140: 87f7 00c0 7b79 73bd 0a92 babe b80f d03e
00000150: 3245 f23e f05d 24c0 4de0 843f 9a3b 8ebf
00000160: 074a 36c0 0b66 083e 27c3 503e d6a8 1bbf
00000170: 2c41 0b3f 445d 45bf 6e58 b8bf 8be9 9fbe
00000180: 279a 083f ba40 683e d785 c8bf d5a3 2ebf
00000190: 2329 44bf 26f8 02c0 bc86 b63d 60db 253f
000001a0: 4178 ccbf 2217 cfbd 8cca 213f 52be cebf
000001b0: ef2f 2ebf 1f6e 9dbf 809b adbf cfb7 de3e
000001c0: 12f0 14bf b356 cbbe 27a7 10c0 99bd 9a3e
000001d0: 06ce cd3e ad8e 0ac0 221f a2bf f5b7 8b3e
000001e0: 0e31 e33d 56c6 4dbd 8197 0dc0 8501 143f
000001f0: 8e3d 9ebe b167 1cbf a307 ae3e fd42 a43d
00000200: efe2 60bf fdff 963d 0ce4 8ebf 9d5b fabf
00000210: 074b 92bf 38d8 24be a6f5 eebf 9b2e 6b3f
00000220: ddfe 8dbe 19fc 333e bf3d f93e 6ac5 febf
00000230: 16de 37be dd6a 7b3f 700b edbf 4ba9 eabf
00000240: 86c8 bcbf 9510 69be 88d3 8cbf 4436 20c0
00000250: b90f e4bf 4df0 633f 65e4 073f 653d c83e
00000260: 4ad2 e7bc 5b3c 513e 9146 0a3a 318e 1d3d
00000270: 0e30 16bf 708e e33e e72d ca3e 1c5a 6abf
00000280: 4889 03bf be20 6ebe f8f5 563f b53a 20c0
00000290: 173b fb3e 4e98 60bf 57df 9bbf f787 9fbf
000002a0: 43c1 9f3e c8e4 9cbe 8417 f33e c19e e7be
000002b0: ed12 2f3f dbc7 2bc0 1897 a5bf b3f2 1ac0
000002c0: fbb9 d6be 0af1 eebd 909c eebe 4bd0 eb3e
000002d0: cd79 1c3f ad10 1ec0 950e 0ac0 c33f f9be
000002e0: eafe 293e 6a97 5a3e d94f 5dbe 8f24 51bf
000002f0: 8e27 d4bf 89f3 433f 265a a63e b011 10be
00000300: 01a8 723f 6de9 abbd 7d63 24bd 1123 33be
00000310: fe79 583d de03 17bf c86f f0bf 2d1f 6bbf
00000320: d16f 24bf 3905 adbe dfbd 9cbf a578 333f
00000330: f0e0 8f3d 2ab1 de3d 26bc 003f 9487 3abf
00000340: 96b0 0c3f b8a6 a7be e7ae f4be 81f0 c53e
00000350: 3c49 6cbe eaa8 f8bf 7ddd 823e 2bbf cbbe
00000360: 5fb7 793e a10f a6be be89 7d3e 356d 9dbe
00000370: bfb3 fc3d 80cf b23e e2c6 4abf d331 2ec0

l3.bias f4 [28]
-0.25415438 -0.15895991 -0.5367323 -0.38546473 -0.14698982 -0.38325584 -0.31618413 0.13323312
0.41637796 0.07468577 0.38151407 0.2643445 0.03745602 0.10329713 0.14081694 -0.22590469
0.010306596 -0.13034049 0.21627124 0.104614824 0.124573365 0.26657102 0.38562894 0.05995552
-0.21898001 0.108275175 -0.3359457 -0.16106881
00000000: 8620 82be 63c6 22be 4a67 09bf a25b c5be
00000010: 8084 16be 1c3a c4be e3e2 a1be 436e 083e
00000020: 7e2f d53e daf4 983d d055 c33e 2a58 873e
00000030: 7c6b 193d 728d d33d 5132 103e 8f53 67be
00000040: ffdc 283c fa77 05be 3576 5d3e 4c40 d63d
00000050: 5220 ff3d ff7b 883e 2871 c53e eb93 753d
00000060: 4c3c 60be 60bf dd3d 1301 acbe 39ef 24be
